Files already downloaded and verified
Files already downloaded and verified
VGGLIKE_neuron(
  (vgg): VGG(
    (features): Sequential(
      (0): Conv2d(3, 96, kernel_size=(3, 3), stride=(1, 1), padding=(1, 1))
      (1): BatchNorm2d(96, eps=1e-05, momentum=0.1, affine=True, track_running_stats=True)
      (2): ReLU(inplace)
      (3): Conv2d(96, 96, kernel_size=(3, 3), stride=(1, 1), padding=(1, 1))
      (4): BatchNorm2d(96, eps=1e-05, momentum=0.1, affine=True, track_running_stats=True)
      (5): ReLU(inplace)
      (6): MaxPool2d(kernel_size=2, stride=2, padding=0, dilation=1, ceil_mode=False)
      (7): Conv2d(96, 192, kernel_size=(3, 3), stride=(1, 1), padding=(1, 1))
      (8): BatchNorm2d(192, eps=1e-05, momentum=0.1, affine=True, track_running_stats=True)
      (9): ReLU(inplace)
      (10): Conv2d(192, 192, kernel_size=(3, 3), stride=(1, 1), padding=(1, 1))
      (11): BatchNorm2d(192, eps=1e-05, momentum=0.1, affine=True, track_running_stats=True)
      (12): ReLU(inplace)
      (13): MaxPool2d(kernel_size=2, stride=2, padding=0, dilation=1, ceil_mode=False)
      (14): Conv2d(192, 384, kernel_size=(3, 3), stride=(1, 1), padding=(1, 1))
      (15): BatchNorm2d(384, eps=1e-05, momentum=0.1, affine=True, track_running_stats=True)
      (16): ReLU(inplace)
      (17): Conv2d(384, 384, kernel_size=(3, 3), stride=(1, 1), padding=(1, 1))
      (18): BatchNorm2d(384, eps=1e-05, momentum=0.1, affine=True, track_running_stats=True)
      (19): ReLU(inplace)
      (20): Conv2d(384, 384, kernel_size=(3, 3), stride=(1, 1), padding=(1, 1))
      (21): BatchNorm2d(384, eps=1e-05, momentum=0.1, affine=True, track_running_stats=True)
      (22): ReLU(inplace)
      (23): MaxPool2d(kernel_size=2, stride=2, padding=0, dilation=1, ceil_mode=False)
      (24): Conv2d(384, 768, kernel_size=(3, 3), stride=(1, 1), padding=(1, 1))
      (25): BatchNorm2d(768, eps=1e-05, momentum=0.1, affine=True, track_running_stats=True)
      (26): ReLU(inplace)
      (27): Conv2d(768, 768, kernel_size=(3, 3), stride=(1, 1), padding=(1, 1))
      (28): BatchNorm2d(768, eps=1e-05, momentum=0.1, affine=True, track_running_stats=True)
      (29): ReLU(inplace)
      (30): Conv2d(768, 768, kernel_size=(3, 3), stride=(1, 1), padding=(1, 1))
      (31): BatchNorm2d(768, eps=1e-05, momentum=0.1, affine=True, track_running_stats=True)
      (32): ReLU(inplace)
      (33): MaxPool2d(kernel_size=2, stride=2, padding=0, dilation=1, ceil_mode=False)
      (34): Conv2d(768, 768, kernel_size=(3, 3), stride=(1, 1), padding=(1, 1))
      (35): BatchNorm2d(768, eps=1e-05, momentum=0.1, affine=True, track_running_stats=True)
      (36): ReLU(inplace)
      (37): Conv2d(768, 768, kernel_size=(3, 3), stride=(1, 1), padding=(1, 1))
      (38): BatchNorm2d(768, eps=1e-05, momentum=0.1, affine=True, track_running_stats=True)
      (39): ReLU(inplace)
      (40): Conv2d(768, 768, kernel_size=(3, 3), stride=(1, 1), padding=(1, 1))
      (41): BatchNorm2d(768, eps=1e-05, momentum=0.1, affine=True, track_running_stats=True)
      (42): ReLU(inplace)
      (43): MaxPool2d(kernel_size=2, stride=2, padding=0, dilation=1, ceil_mode=False)
      (44): AvgPool2d(kernel_size=1, stride=1, padding=0)
    )
    (classifier): Linear(in_features=768, out_features=10, bias=True)
  )
  (mask): ParameterList(
      (0): Parameter containing: [torch.cuda.FloatTensor of size 96 (GPU 0)]
      (1): Parameter containing: [torch.cuda.FloatTensor of size 96 (GPU 0)]
      (2): Parameter containing: [torch.cuda.FloatTensor of size 192 (GPU 0)]
      (3): Parameter containing: [torch.cuda.FloatTensor of size 192 (GPU 0)]
      (4): Parameter containing: [torch.cuda.FloatTensor of size 384 (GPU 0)]
…
